hw2/best_weight.npy (npy, 1224 bytes, 1 tensors)

array f8 [137]
00000000: 2d34 8bbf 0a8d e13f 62c3 9094 0f60 18c0
00000010: c545 b594 9876 e1bf f15c 48c7 a9f4 e7bf
00000020: 608e 64d1 e395 c1bf 2bda e5b9 3377 1cc0
00000030: c331 bc49 17b3 e4bf e389 cda0 560a dcbf
00000040: 828d a984 74c5 d3bf 4895 b0b2 8d0f c53f
00000050: 4263 4f4c 4822 f43f 26f5 ecd8 df7f ccbf
00000060: 6605 d5c4 1b29 e43f ffb8 2634 338b f6bf
00000070: 155d fa7c 64d2 ebbf 842a a5cf 6db6 e73f
00000080: 888c 10d6 b45b f0bf 464e 9ad1 7bb4 ddbf
00000090: 2955 6ded 09e2 d33f c155 108e 362f 12c0
000000a0: f3f2 5371 4d62 ebbf 8737 c1dc 2341 e5bf
000000b0: 49e1 87c0 909e c23f 7e0d 4be7 f4c0 d2bf
000000c0: c209 36be 596f eebf c1e7 3481 2996 f1bf
000000d0: 47ba e919 3f99 c8bf ffb8 2634 338b f6bf
000000e0: 26f5 ecd8 df7f ccbf c209 36be 596f eebf
000000f0: 155d fa7c 64d2 ebbf c1e7 3481 2996 f1bf
00000100: 2955 6ded 09e2 d33f 868c 10d6 b45b f0bf
00000110: 8737 c1dc 2341 e5bf 47ba e919 3f99 c8bf
00000120: 6605 d5c4 1b29 e43f 49e1 87c0 909e c23f
00000130: 842a a5cf 6db6 e73f c155 108e 362f 12c0
00000140: f3f2 5371 4d62 ebbf 4d4e 9ad1 7bb4 ddbf
00000150: 7e0d 4be7 f4c0 d2bf 1c79 6fbf 4d66 f23f
00000160: e5ec dfc0 02d3 f1bf 32df 64e2 fdc5 f4bf
00000170: 124d 22eb ee06 e8bf 0512 5ae7 deb4 f3bf
00000180: fd9a 0901 5f71 0140 5c6b 659d 2e1d f7bf
00000190: c965 4bb6 81a5 de3f a3d5 9e1c f774 d83f
000001a0: 3150 1784 678c f4bf a12b d41a 427b f4bf
000001b0: 9fa2 6935 3b3f debf e19d fb1d d15f d83f
000001c0: 8cca 1efc 807f f1bf 4e6d a8a6 d372 e3bf
000001d0: 532a ff10 7700 edbf c641 d287 f2b5 dcbf
000001e0: 949b 08da 7576 d4bf 407e 205d a84a d2bf
000001f0: 5301 e17f 78f4 c93f e223 8a73 7513 0bc0
00000200: 9f9a be3a 03a1 8d3f 6f6e be5b f3fd e6bf
00000210: 24b6 4f3f 5640 ecbf 2edd 4296 a636 ce3f
00000220: f62c 5e77 8270 dbbf e368 7f5a 50d9 f03f
00000230: fa0b 7ec2 c7ac b33f ea31 6097 3b47 e9bf
00000240: 43a1 0068 ed44 d7bf f460 5846 42b0 e3bf
00000250: 9fcd 9128 2ea9 d5bf 270a 0528 e922 efbf
00000260: 2b3a 03e9 dd87 edbf 17f8 0cbf d92a 9c3f
00000270: 052c f705 70b4 ed3f 333a 5fc8 d1c1 0540
00000280: dc7e 6ef0 08c6 fe3f 3c0f 4975 561d c83f
00000290: eaa4 c204 6e04 dbbf 1f5a 1e9d 6de4 f0bf
000002a0: 569a 52e9 7d84 ef3f a51c 2654 f15a f7bf
000002b0: 9db2 51e9 23cd f1bf f7a8 b307 9c7f e2bf
000002c0: 0a22 5f22 ce2b febf 52e2 555c 918e f2bf
000002d0: 15c5 2b3d 651e cbbf a0a5 06bc 7f13 fabf
000002e0: 7525 4079 6768 ab3f 2961 8187 e04e cebf
000002f0: b27f fa1f 3275 e6bf 1854 6749 66fc b33f
00000300: 04ec 59ee e0e8 b0bf 1da5 be53 ac5b ecbf
00000310: 18a0 17eb 7baa 08c0 64f4 d40d c228 e7bf
00000320: 2889 42fc a69c c5bf 1706 c2e2 b210 f8bf
00000330: 9b46 97ee bf38 1bc0 b08c 8999 c47a ecbf
00000340: 8aa7 a0b8 6bca e9bf 33c6 6c27 ac21 d4bf
00000350: c7aa 5ed3 f675 fdbf 5d75 9696 4c1b e8bf
00000360: cf7e b5b9 846a e1bf a037 d9a1 ccce f0bf
00000370: 1c5a 0799 14c7 fcbf 182f f686 415a d0bf
00000380: cf51 62bc 0ad8 15c0 0e95 0eae 26b7 d73f
00000390: cace 16de 2454 c3bf a755 3646 dfb4 01c0
000003a0: 09a3 a2d7 2bb8 e9bf 41d7 16f2 62a1 e9bf
000003b0: 139a 3ca3 c357 e7bf 3814 738a 6049 d03f
000003c0: f858 948c 3463 e3bf 7de7 974c b32f e4bf
000003d0: 52f0 4bf8 8085 e4bf bdad 9dc1 e581 cebf
000003e0: 66f4 e158 5086 e0bf 1883 cd45 6c01 eabf
000003f0: 7050 2819 2dbf 0cc0 eb73 90c1 bf26 01c0
00000400: 0f2b 1dfb d79f 0740 38ba 9229 7ff4 d6bf
00000410: 753d 2d53 0761 0040 9f4f 4800 cc2e c63f
00000420: 01af 8dad 7d09 0540 865c 7ce3 cf65 e0bf
00000430: dd14 d039 7c9b bebf 06d6 52a0 c14d 4340
00000440: b31e 0ec2 3ae7 dabf
0.5484670392121466 -6.093809434257169 -0.5457270531134603 -0.7486161129226315 -0.13738677715547265 -7.116408257154528 -0.6468616905345289 -0.4381310053196598
-0.308926705887835 0.16453715539061364 1.2583697300780874 -0.22265241710730627 0.6300181240441531 -1.4089843785437208 -0.8694326821304538 0.7410191588945314
-1.022389255704896 -0.46414084881800866 0.310671312200912 -4.546106548068054 -0.855749818175893 -0.6642016708008079 0.1454640331355768 -0.29302713954185566
-0.9510925974903375 -1.0991606757292944 -0.192176711705047 -1.4089843785437208 -0.22265241710730627 -0.9510925974903375 -0.8694326821304538 -1.0991606757292944
0.310671312200912 -1.0223892557048955 -0.6642016708008079 -0.192176711705047 0.6300181240441531 0.1454640331355768 0.7410191588945314 -4.546106548068054
-0.855749818175893 -0.46414084881800904 -0.29302713954185566 1.1499764898249571 -1.114016297737913 -1.298337826110537 -0.7508463470898354 -1.2316578900509978
2.1803569871002524 -1.4446245334899777 0.47885172655295755 0.3821389941689068 -1.2842784080321616 -1.2800923393249166 -0.4726093312843122 0.38084819725051317
-1.0936288689087261 -0.6077669386899431 -0.9063067752807207 -0.4486051870708504 -0.3197302464708909 -0.28580674261499794 0.2027731537255116 -3.3845013643772157
0.014467263441315934 -0.7184998313782226 -0.8828536259222273 0.2360428079316334 -0.4287420430852785 1.0530551467004947 0.07685516832684405 -0.7899454075391621
-0.3635819926880865 -0.6152659772806417 -0.33845094644422064 -0.9730115682253356 -0.9228353072192638 0.02750721195774738 0.9282760731233571 2.7196384100018576
1.9233483688221247 0.18839531637979146 -0.42214537110210293 -1.0557685983127454 0.9849233204921102 -1.45970280523924 -1.1125830759075719 -0.5780773306298944
-1.8856946318284167 -1.159806595502364 -0.21186509596695005 -1.6297604889644859 0.05353091578588024 -0.23678213707422316 -0.7018061279850285 0.07807006160813079
-0.0660534459984064 -0.8861905704153831 -3.083244167955865 -0.7237253446725274 -0.16884314839723769 -1.5040768487673455 -6.805419662459509 -0.8899863241935204
-0.8059595685965502 -0.31455520486915417 -1.8412998444206765 -0.7533324185530251 -0.5442527415397879 -1.0504881212432124 -1.7986036279377293 -0.25550878696297863
-5.460978454113913 0.37055365560293374 -0.1510053715152167 -2.2133164868671034 -0.8037318431498487 -0.800950501280319 -0.7294634044854454 0.25447858353101394
-0.6058600183194178 -0.6308228012050986 -0.6412968492072741 -0.2383391566648764 -0.5163957344044661 -0.8126736987433985 -3.5933477368762894 -2.1439204332550523
2.953048669650691 -0.3586728960025627 2.0473772524052785 0.17330312742035134 2.6296342429030806 -0.5124282305795453 -0.11956001674123536 38.607471504637985
-0.42036313009928533
