hw2/generative_weight.npy (npy, 1112 bytes, 1 tensors)

array f8 [123]
0.29595335171904746 -0.27479957044124603 -4.1730945110321045 -7.2177042961120605 -8.285241603851318 -0.8235749304294586 13.166868925094604 5.097844123840332
4.565765857696533 2.2958943843841553 0.06661785369779998 171.40492630004883 -62.62761306762695 31.362640380859375 0.9953207969665527 -327.51318359375
1.2690603733062744 174881.984375 1.4715561866760254 -813.42041015625 -4.292972564697266 -280.6131591796875 -29491.953125 10307.83984375
101697.3125 91366.234375 183.7340087890625 -3.739898681640625 62.03106689453125 656921.71875 1.0341074569150805 35765.6328125
6.080095291137695 -0.2518596649169922 386.28436279296875 -1478.1234130859375 -34.155147552490234 158573.7109375 -1367.244384765625 185.813232421875
-28.80240249633789 -242401.140625 -14835.39453125 7.300092697143555 3.756052017211914 -0.6153697967529297 5.751984596252441 8.097028732299805
1.1914966702461243 -10.005880355834961 -1.2872508764266968 -3.730431914329529 -1.9421709775924683 -0.03694833070039749 -7.88853120803833 0.4277898669242859
7.150953888893127 6.237314343452454 3.2262052297592163 0.8669034242630005 -8.536755323410034 4.228392004966736 4.965475082397461 0.23709234595298767
-4.974318146705627 1.6991772651672363 4.712706565856934 4.134986400604248 2.4591012001037598 2.412407636642456 -1.20988130569458 2.1892566084861755
-1.0871710777282715 5.094328880310059 2.2885565757751465 -1.388148546218872 13.785621523857117 -19.640139937400818 0.49951940753980606 0.32179812511370787
0.3086067929545551 -0.7723121643066406 -0.11031031608581543 2.397940158843994 -0.3577916622161865 -0.6761002540588379 8.2109956741333 -1.487095832824707
0.4268941879272461 -0.364443302154541 1.3558006286621094 -2.223989248275757 -1.673708438873291 -1.5450162887573242 -0.432462215423584 1.031445026397705
-2.42989444732666 -0.9600491523742676 -2.307196617126465 -1.018242359161377 3.0616607666015625 -1.088942527770996 -1.8255059719085693 1.5029501914978027
2.7201342582702637 4.298505783081055 -0.12768077850341797 -1.2529654502868652 4.385481834411621 -4.604751110076904 1.422316074371338 -2.2534451484680176
0.022137820720672607 0.8068602085113525 1.0740890502929688 -0.860903263092041 8.212889671325684 1.1039938926696777 0.9278156757354736 1.837951421737671
-0.12338399887084961 -0.7172362804412842 2.6910905838012695
00000000: de97 b153 e6f0 d23f 0000 00f0 5096 d1bf
00000010: 0000 00b0 3fb1 10c0 0000 00e0 edde 1cc0
00000020: 0000 0030 0b92 20c0 0000 00d0 b95a eabf
00000030: 0000 00d8 6f55 2a40 0000 0040 3164 1440
00000040: 0000 0020 5843 1240 0000 00e0 fd5d 0240
00000050: 2336 f61e de0d b13f 0000 0028 f56c 6540
00000060: 0000 00a0 5550 4fc0 0000 0000 d65c 3f40
00000070: 0000 0000 abd9 ef3f 0000 0000 3678 74c0
00000080: 0000 0040 124e f43f 0000 00e0 0f59 0541
00000090: 0000 0080 7e8b f73f 0000 0000 5d6b 89c0
000000a0: 0000 0000 012c 11c0 0000 0080 cf89 71c0
000000b0: 0000 0000 fdcc dcc0 0000 0080 eb21 c440
000000c0: 0000 0000 15d4 f840 0000 00c0 634e f640
000000d0: 0000 0000 7df7 6640 0000 0000 50eb 0dc0
000000e0: 0000 0000 fa03 4f40 0000 0070 330c 2441
000000f0: 0000 c042 b48b f03f 0000 0040 b476 e140
00000100: 0000 0080 0452 1840 0000 0000 781e d0bf
00000110: 0000 00c0 8c24 7840 0000 0060 7e18 97c0
00000120: 0000 00e0 db13 41c0 0000 00b0 6d5b 0341
00000130: 0000 0040 fa5c 95c0 0000 0000 063a 6740
00000140: 0000 0040 6acd 3cc0 0000 0020 0997 0dc1
00000150: 0000 0080 b2f9 ccc0 0000 0080 4b33 1d40
00000160: 0000 0000 650c 0e40 0000 0000 1cb1 e3bf
00000170: 0000 0040 0802 1740 0000 00c0 ad31 2040
00000180: 0000 00d0 5e10 f33f 0000 00c0 0203 24c0
00000190: 0000 0060 9498 f4bf 0000 00b0 ecd7 0dc0
000001a0: 0000 00e0 2113 ffbf 0000 0040 e4ea a2bf
000001b0: 0000 0020 db8d 1fc0 0000 00c0 e860 db3f
000001c0: 0000 00a8 939a 1c40 0000 0088 02f3 1840
000001d0: 0000 00b0 44cf 0940 0000 0040 acbd eb3f
000001e0: 0000 0098 d112 21c0 0000 0098 dfe9 1040
000001f0: 0000 0080 a5dc 1340 0000 00c0 0a59 ce3f
00000200: 0000 00a8 b3e5 13c0 0000 0080 d42f fb3f
00000210: 0000 00c0 cfd9 1240 0000 00e0 398a 1040
00000220: 0000 0040 3dac 0340 0000 0060 9c4c 0340
00000230: 0000 0080 ac5b f3bf 0000 00f8 9883 0140
00000240: 0000 0080 0d65 f1bf 0000 00c0 9760 1440
00000250: 0000 00c0 f64e 0240 0000 0040 db35 f6bf
00000260: 0000 00fc 3c92 2b40 0000 0036 e0a3 33c0
00000270: e672 c63f 20f8 df3f 6cc2 d129 5798 d43f
00000280: 690c c4b4 36c0 d33f 0000 0000 c8b6 e8bf
00000290: 0000 0000 4c3d bcbf 0000 0040 fb2e 0340
000002a0: 0000 0000 0fe6 d6bf 0000 0000 9da2 e5bf
000002b0: 0000 00a0 076c 2040 0000 0000 25cb f7bf
000002c0: 0000 0000 3c52 db3f 0000 0000 0a53 d7bf
000002d0: 0000 0000 5cb1 f53f 0000 00e0 baca 01c0
000002e0: 0000 0080 82c7 fabf 0000 0000 63b8 f8bf
000002f0: 0000 0000 76ad dbbf 0000 0080 cc80 f03f
00000300: 0000 0080 6c70 03c0 0000 0000 b9b8 eebf
00000310: 0000 0080 2375 02c0 0000 0080 b84a f0bf
00000320: 0000 0000 487e 0840 0000 0000 4f6c f1bf
00000330: 0000 00c0 4535 fdbf 0000 0080 150c f83f
00000340: 0000 00c0 d5c2 0540 0000 0080 ab31 1140
00000350: 0000 0000 d857 c0bf 0000 0080 250c f4bf
00000360: 0000 00c0 bb8a 1140 0000 00e0 436b 12c0
00000370: 0000 0080 cec1 f63f 0000 0040 0e07 02c0
00000380: 0000 0000 4cab 963f 0000 0080 ccd1 e93f
00000390: 0000 0000 782f f13f 0000 0000 858c ebbf
000003a0: 0000 00e0 ff6c 2040 0000 0080 f5a9 f13f
000003b0: 0000 0080 aab0 ed3f 0000 00c0 3f68 fd3f
000003c0: 0000 0000 1896 bfbf 0000 0080 99f3 e6bf
000003d0: 0000 0080 5a87 0540
