hw2/weight.npy (npy, 1120 bytes, 1 tensors)

array f8 [124]
000000 fc 14 1e dc 30 37 f3 bf ca 64 51 27 63 b6 fd 3f
       -1.2009743307438034 1.8570281539780802
000010 a8 22 28 64 1e 69 eb bf a2 26 06 31 d7 0b e2 bf
       -0.8565818744837843 -0.5639453847408797
000020 1b ac f3 c6 65 d5 eb bf cb 09 6e 06 9f c4 ca bf
       -0.8697995076921673 -0.20912540258366472
000030 be f5 76 ff 97 aa 06 c0 fa 47 86 1b 67 3c e6 bf
       -2.8332977255037965 -0.694873384245738
000040 92 09 3e 35 70 58 c8 bf ae 54 53 e1 57 a8 d8 bf
       -0.19019892310832326 -0.38527485851711674
000050 5e 42 5d 8d 13 2d bc 3f 97 d1 79 f4 e9 7a f0 3f
       0.11006281091000278 1.030008273109251
000060 5a 27 83 73 d8 a6 b4 bf 7a 91 12 29 e1 7b e4 3f
       -0.08067086048245412 0.6401220133016488
000070 46 b5 71 52 36 09 f0 bf bd 59 7f 67 ce 46 e6 bf
       -1.002249071166561 -0.6961433431086373
000080 1f f3 b5 ba a8 91 e7 3f 40 c6 6e 09 87 73 eb bf
       0.7365306517309341 -0.8578524765236537
000090 7c 9e a4 d7 00 d3 d5 bf 6d b1 ea 94 c3 2e d9 3f
       -0.34100361880198427 0.39347924749997426
0000a0 a1 41 40 bf 5b 51 10 c0 6a 67 2b a0 dc e9 e7 bf
       -4.0794515498131725 -0.747297585326334
0000b0 52 99 ae c3 f7 d5 df bf 6c ce 1a 98 4a d0 cb 3f
       -0.49743455991337726 0.21729404856670287
0000c0 92 85 71 a0 b7 b5 c5 bf 13 86 28 39 ad 0c eb bf
       -0.16960807165291364 -0.8452974430439916
0000d0 7d 91 2e 5f c5 46 ef bf 2d cb 93 b6 e3 26 b2 bf
       -0.9773890360852843 -0.0709059067483337
0000e0 46 b5 71 52 36 09 f0 bf 5a 27 83 73 d8 a6 b4 bf
       -1.002249071166561 -0.08067086048245412
0000f0 13 86 28 39 ad 0c eb bf bd 59 7f 67 ce 46 e6 bf
       -0.8452974430439916 -0.6961433431086373
000100 7d 91 2e 5f c5 46 ef bf 6d b1 ea 94 c3 2e d9 3f
       -0.9773890360852843 0.39347924749997426
000110 40 c6 6e 09 87 73 eb bf 52 99 ae c3 f7 d5 df bf
       -0.8578524765236537 -0.49743455991337726
000120 2d cb 93 b6 e3 26 b2 bf 7a 91 12 29 e1 7b e4 3f
       -0.0709059067483337 0.6401220133016488
000130 6c ce 1a 98 4a d0 cb 3f 1f f3 b5 ba a8 91 e7 3f
       0.21729404856670287 0.7365306517309341
000140 a1 41 40 bf 5b 51 10 c0 6a 67 2b a0 dc e9 e7 bf
       -4.0794515498131725 -0.747297585326334
000150 7c 9e a4 d7 00 d3 d5 bf 92 85 71 a0 b7 b5 c5 bf
       -0.34100361880198427 -0.16960807165291364
000160 6e aa 56 b3 31 e6 eb 3f db 8b bf c2 cc b7 f4 bf
       0.8718498709398099 -1.2948730094292304
000170 1f 77 3b 2d d5 b5 f6 bf 23 02 50 b1 d4 a1 f2 bf
       -1.4193927542577922 -1.1645094801207356
000180 9a e0 59 1f 4b 9c f4 bf 7d 77 1e c8 7a 07 f5 3f
       -1.2881575798656173 1.3143260781430108
000190 de 99 1a ba d3 32 fc bf 7a 23 df 47 e6 51 e5 3f
       -1.7624089498218534 0.6662475017302392
0001a0 c4 38 cb 76 64 29 e1 3f 91 04 48 17 ce 93 f1 bf
       0.5363027877990807 -1.098585215513854
0001b0 b5 81 b5 2d 8f e7 f0 bf 92 d8 3e df 3d 06 f0 bf
       -1.0565330300815792 -1.0015238495375667
0001c0 0c 87 1d c4 17 ee dc 3f 9e 39 e0 b4 44 20 ee bf
       0.4520320334614645 -0.9414390118343368
0001d0 d9 31 6a 46 12 2b d9 bf 0c f0 3c 1a 0d 40 e9 bf
       -0.3932538688320882 -0.7890687477552105
0001e0 a3 44 a0 61 f9 dd cc bf 4c 25 02 8d cd fe bc bf
       -0.225524113339394 -0.1132629842051262
0001f0 d0 71 c2 40 d8 62 a5 bf bd 64 88 10 8b a0 d9 3f
       -0.041769750504702 0.400423780579853
000200 72 3c 4c a5 ba 76 09 c0 42 4e 06 c4 55 15 c5 3f
       -3.1829731859102646 0.16471359321131912
000210 0e 67 f7 23 c0 24 ef bf 9d dc a1 73 04 fa f3 bf
       -0.9732361509770457 -1.2485394017110487
000220 39 35 43 43 dd 92 9f bf 30 9e 3d 30 ae 43 e2 bf
       -0.03083368037259968 -0.5707617704583239
000230 a0 3e f3 a1 c5 c7 e8 3f 46 64 40 f9 ca 60 c5 bf
       0.7743862307633727 -0.1670163838432776
000240 31 3a a0 30 62 0d f2 bf 8e 72 36 93 d9 9e e7 bf
       -1.1282674693535564 -0.7381408572433246
000250 b8 2e 29 90 35 1c ed bf e5 2a 1c 3b 0c 98 e4 bf
       -0.9096935096399283 -0.6435605196469082
000260 fa 52 07 01 c2 75 f4 bf c5 2b 73 f9 ce b1 f5 bf
       -1.2787494697742532 -1.3559102768074223
000270 2f b6 5a e6 1f 38 e0 bf 0b 0a 39 41 7a 1a 3b 40
       -0.5068511485203028 27.103427959848016
000280 1d 80 aa a7 75 02 06 40 f2 e9 42 25 87 12 07 40
       2.7512009714992147 2.884046832184361
000290 95 75 ea b3 d0 d6 e5 3f a1 77 af 31 57 4d 8a 3f
       0.6824725641233039 0.01284282799127451
0002a0 ab ed 96 bb 1c f9 dd bf b2 46 6d 78 f8 22 f5 3f
       -0.4683296043328606 1.3210377411054819
0002b0 35 41 20 c4 93 ea ee bf 48 ca 88 88 c7 b3 de bf
       -0.966134913500389 -0.47972286542350107
0002c0 b4 67 4a c3 1e 3f b7 3f 85 93 e1 13 e0 22 e9 bf
       0.09080688731992731 -0.7855072391799786
0002d0 db 76 3e 43 e9 04 e6 bf a8 26 f5 6c 66 56 73 bf
       -0.6880995095595738 -0.004721069431363446
0002e0 ed d4 0d 7c 76 ba ef bf 94 ee d2 e1 62 a3 e0 3f
       -0.9915115759783056 0.5199446116088944
0002f0 2c fd e7 ac 3f ee d9 3f 4f b7 63 0b 92 64 bf 3f
       0.4051665485894371 0.1226283338362155
000300 8d c3 60 c3 61 54 e3 3f b4 dd f1 a5 af 06 e0 3f
       0.6040505233741996 0.5008161774739421
000310 d6 3f a0 9d c5 dd d1 bf 0a 8b da 5b 4f 5a fe bf
       -0.279160884791961 -1.8970483387026342
000320 cc ac ac 65 bd 80 bc 3f e5 74 d5 bb 92 87 db 3f
       0.11133941395080454 0.43014973014017094
000330 b2 90 16 0b ca a8 e2 bf c7 25 10 41 86 65 00 c0
       -0.5831041542592372 -2.0495724757244917
000340 8e c3 e7 7c bb 6b dd bf 17 c4 30 eb c2 fe c7 bf
       -0.45970046232019335 -0.18746220096503016
000350 f9 bb 3e e0 5f 4b d2 3f 41 0b 1e 11 ed 14 ea bf
       0.2858504953282473 -0.8150544485400603
000360 67 54 84 76 cf f4 d2 bf c4 3a 92 74 85 32 bc 3f
       -0.29619204114835046 0.1101458940122298
000370 14 7b 91 05 4a 07 ce bf 65 b8 80 cd 2e c7 e6 bf
       -0.23459744712723618 -0.7118143094755963
000380 a4 f0 88 34 80 65 de 3f 4f c8 78 34 8c cd c0 bf
       0.4749451172863337 -0.13127281725025106
000390 0f e6 0d f8 b0 a5 e7 3f ca 07 52 e9 da 55 da 3f
       0.7389759869394669 0.411490180828079
0003a0 56 a3 4a c6 10 a9 f9 bf 3c 60 ca 78 28 94 b8 bf
       -1.603775763107668 -0.09601071309077808
0003b0 5e 08 d8 6d 15 9d df bf fb b3 74 fc 0d 80 9c bf
       -0.4939626286214941 -0.02783223965996127
0003c0 b8 b0 98 9f 5e 67 ec 3f e2 fa e0 bf 64 8e c2 bf
       0.887618362151918 -0.1449705063732472
0003d0 f7 86 4b c9 5e ff b9 3f 06 97 13 ae f3 73 ab 3f
       0.10155289091519736 0.05361901760060843
